Project/ml_models/best_model.pt (torch, 5997 bytes, 8 tensors)

fc1.weight f4 [8, 5]
0.31409514 -0.098791726 0.12765312 0.0880741 -0.6261663 0.45129657 0.23978049 -0.6204374
-0.57784337 0.0326067 0.29451087 0.10367796 0.28126398 0.41632712 0.33332923 0.31379697
0.2335098 0.36176217 0.36856142 -0.0677471 0.31622225 -0.01246667 -0.13003726 -0.2594239
-0.58122355 0.2743213 0.076395474 0.41630316 0.3890611 -0.17033298 0.19333574 -0.04994474
0.061736554 0.10959816 0.34742692 0.38259453 -0.08471616 -0.12910877 -0.04944064 0.7299479
00000000: 14d1 a03e 5153 cabd 80b7 023e 3260 b43d
00000010: 6f4c 20bf 5810 e73e 0489 753e fcd4 1ebf
00000020: 8bed 13bf 9a8e 053d 21ca 963e 1c55 d43d
00000030: d501 903e d428 d53e 21aa aa3e ffa9 a03e
00000040: 311d 6f3e e438 b93e 15b4 bc3e febe 8abd
00000050: e2e7 a13e 0141 4cbc 7d28 05be 36d3 84be
00000060: 11cb 14bf d773 8c3e 3b75 9c3d b025 d53e
00000070: 0433 c73e c56b 2ebe cef9 453e db92 4cbd
00000080: 78df 7c3d 0075 e03d f1e1 b13e 6ee3 c33e
00000090: ab7f adbd 1735 04be 4582 4abd dedd 3a3f

fc1.bias f4 [8]
0.26164165 0.2896427 0.28809327 -0.056084078 0.3409668 0.44356006 0.13469514 0.40658998
00000000: e5f5 853e 0c4c 943e f680 933e 6bb8 65bd
00000010: 3393 ae3e 4e1a e33e 86ed 093e 902c d03e

fc2.weight f4 [16, 8]
0.18122987 -0.29349205 0.11957451 0.20456563 0.04091142 0.26414618 -0.038311586 -0.20381127
0.13978939 0.26579407 -0.25062048 -0.14860617 0.26305625 -0.14074883 -0.12634134 -0.15437485
-0.12805916 0.3530909 -0.16123568 -0.22132108 0.036964167 -0.27537695 0.013178739 0.16540277
-0.011465998 0.35034478 -0.22685182 -0.21067435 0.1541431 -0.24294503 -0.0543799 0.02216303
-0.18925154 0.3151238 -0.1012974 -0.20244186 -0.04030504 -0.26085925 0.05484195 0.2414079
-0.10454963 -0.2479947 0.2455659 0.15736884 -0.2260726 0.1611249 0.11952686 0.14390701
-0.055547487 -0.27449185 0.23809376 0.17617582 -0.19067702 0.1926289 0.096962094 0.08735275
-0.28628644 0.16063584 0.058838267 -0.105458744 -0.20483048 -0.16355374 0.13921648 0.35669625
0.31659955 -0.04063752 -0.12535271 0.05507802 0.28791547 0.11218775 -0.16574994 -0.37267876
-0.069758035 -0.27400416 0.24466895 0.17428347 -0.20429754 0.18755071 0.1044212 0.10375722
0.20019303 0.2099096 -0.24232967 -0.10952976 0.29435837 -0.08551075 -0.1502793 -0.22586133
-0.2501503 0.2333774 -0.010950785 -0.15212771 -0.13611872 -0.21092781 0.104851775 0.31415945
0.11760453 -0.3244428 0.17378323 0.21625772 -0.03723735 0.27038604 0.0039973287 -0.12328283
-0.23354599 -0.118638024 0.2235836 0.07304951 -0.2890729 0.04152888 0.166456 0.29270604
0.30395746 0.0139896935 -0.15694559 0.019826522 0.30069107 0.07211934 -0.17000759 -0.35502344
0.17138183 -0.30838624 0.13347718 0.21179268 0.02529696 0.2718206 -0.030519124 -0.19217569
00000000: 5394 393e 9744 96be 7be3 f43d a779 513e
00000010: bc92 273d 2b3e 873e 9cec 1cbd e7b3 50be
00000020: f324 0f3e 2916 883e 5451 80be 372c 18be
00000030: 4faf 863e 7620 10be a05f 01be 7114 1ebe
00000040: f121 03be 55c8 b43e f71a 25be fea1 62be
00000050: bd67 173d 35fe 8cbe a3eb 573c 585f 293e
00000060: e2db 3bbc 6460 b33e d84b 68be 04bb 57be
00000070: b0d7 1d3e 95c6 78be 75bd 5ebd 3e8f b53c
00000080: 28cb 41be e857 a13e 0375 cfbd eb4c 4fbe
00000090: e616 25bd 588f 85be f4a1 603d a233 773e
000000a0: 1e1e d6bd 53f2 7dbe a175 7b3e 4c25 213e
000000b0: 937f 67be edfd 243e 80ca f43d 5c5c 133e
000000c0: c385 63bd 328a 8cbe dace 733e 6f67 343e
000000d0: d640 43be 8340 453e 1094 c63d 00e6 b23d
000000e0: 2394 92be b97d 243e 6500 713d c1fa d7bd
000000f0: 15bf 51be a27a 27be c48e 0e3e e4a0 b63e
00000100: 5619 a23e 8773 26bd 765c 00be 7d99 613d
00000110: a869 933e b1c2 e53d 5aba 29be c0cf bebe
00000120: 4ddd 8ebd 464a 8cbe 7f8a 7a3e 5e77 323e
00000130: 6033 51be 4b0d 403e c8da d53d aa7e d43d
00000140: 67ff 4c3e 8bf2 563e 4525 78be 2451 e0bd
00000150: 24b6 963e 4320 afbd d1e2 19be 3148 67be
00000160: b313 80be 7cfa 6e3e ec6a 33bc 5ec7 1bbe
00000170: b562 0bbe 76fd 57be 87bc d63d 82d9 a03e
00000180: a5da f03d 5e1d a6be 3bf4 313e aa72 5d3e
00000190: 3186 18bd 0a70 8a3e 06fc 823b b57b fcbd
000001a0: ae26 6fbe 7ef8 f2bd 19f3 643e fb9a 953d
000001b0: 5d01 94be 301a 2a3d 7173 2a3e 91dd 953e
000001c0: 50a0 9b3e 0735 653c 58b6 20be 3b6b a23c
000001d0: 2ef4 993e 4eb3 933d 7816 2ebe a2c5 b5be
000001e0: b87e 2f3e cde4 9dbe 3eae 083e 2ee0 583e
000001f0: 923b cf3c 122c 8b3e 3e03 fabc b4c9 44be

fc2.bias f4 [16]
2.743071e-05 0.015584631 0.014673018 0.015957672 0.01349524 -0.0010800816 -0.00097507547 0.0109084025
0.0031520142 -0.0015325389 0.013663806 0.012154195 -0.0011404458 0.002445859 0.0050360216 -0.000560029
00000000: 001b e637 ae56 7f3c 1967 703c aab9 823c
00000010: 241b 5d3c 8691 8dba 359c 7fba 28b9 323c
00000020: 0692 4e3b 79df c8ba 28de 5f3c 6422 473c
00000030: 037b 95ba b44a 203b 3605 a53b e9ce 12ba

fc3.weight f4 [32, 16]
0.15616186 0.14211124 -0.052088957 0.03532953 -0.098307066 -0.051780663 -0.017916324 -0.16948493
0.2621061 -0.028207587 0.18356751 -0.14256342 0.10793219 -0.1387146 0.25289017 0.1492088
-0.00068799447 -0.000876193 -0.00079522096 -0.0008435388 -0.00075234886 -0.0005681043 -0.00058293116 -0.0006371165
-0.00084421993 -0.00057594315 -0.000882328 -0.00068779994 -0.0006473166 -0.0005503083 -0.0008584445 -0.000677988
-9.3453565e-14 -2.75174e-13 -3.477765e-13 -3.2878688e-13 -3.491162e-13 -1.51937e-13 -1.3538246e-13 -3.249937e-13
-1.2982321e-13 -1.379965e-13 -2.428322e-13 -3.3938352e-13 -9.690827e-14 -2.2005421e-13 -1.5005658e-13 -9.233754e-14
-2.164454e-07 -3.7917331e-07 -4.4801646e-07 -4.3588705e-07 -4.378669e-07 -2.3446054e-07 -2.2818483e-07 -3.748019e-07
-2.508501e-07 -2.2694837e-07 -3.4726457e-07 -4.0750834e-07 -2.1365872e-07 -2.7240878e-07 -2.6876486e-07 -2.1328837e-07
-0.058981646 -0.04611784 0.08899221 0.028634224 0.12110468 0.086545095 0.062771484 0.17110576
-0.13233647 0.06978803 -0.07570301 0.15243077 -0.025355825 0.1483042 -0.12609212 -0.053997763
-0.13528724 0.14377986 0.24755023 0.21910033 0.23782471 -0.052284274 -0.07350029 0.17814991
-0.042116165 -0.07139202 0.10417542 0.20710862 -0.13660629 0.031070588 -0.0097926855 -0.14222273
-0.011293488 0.2791 0.17291649 0.24485186 0.11480067 -0.15270574 -0.13882875 -0.023127576
0.20202896 -0.14742546 0.28090358 0.036587875 -0.06647727 -0.15205945 0.22477427 -0.025541643
1.77584e-40 1.96185e-40 3.4639e-41 1.73928e-40 -6.33224e-40 -2.54624e-40 1.7292e-41 1.4612142e-38
2.17884e-40 5.87e-42 1.94275e-40 1.055269e-39 1.1119e-40 2.128714e-39 2.16247e-40 1.67552e-40
-8.4838104e-19 -6.3547334e-19 -2.6505056e-19 -4.1872265e-19 -2.0187687e-19 -4.893346e-19 -5.604337e-19 -1.453186e-19
-9.038022e-19 -5.41613e-19 -7.2196505e-19 -1.6014352e-19 -7.8770874e-19 -2.8864762e-19 -8.797227e-19 -8.4211427e-19
0.21004978 -0.011824064 -0.1390279 -0.095891446 -0.14450435 0.09562771 0.12091404 -0.11322812
0.16172755 0.11612306 0.028774392 -0.12986778 0.1994023 0.0089087365 0.13563645 0.21302791
0.18655084 -0.11413212 -0.13642201 -0.14798851 -0.10690801 0.19163804 0.20086797 -0.009769989
0.03930397 0.20230237 -0.08871466 -0.052518964 0.21002178 0.13654979 0.010404417 0.19590744
-0.12521867 0.19830707 0.25293717 0.24963792 0.22755963 -0.098420024 -0.11224289 0.13515264
0.016599232 -0.11329554 0.16561607 0.17696442 -0.14302026 -0.027238114 0.04951723 -0.13484164
0.09210139 -0.0728443 -0.06338662 -0.07904739 -0.04250334 0.11787954 0.11939217 0.019211099
-0.0028408142 0.12100231 -0.06347247 -0.008130924 0.11034249 0.09645885 -0.017673062 0.09779451
-9.675292e-07 2.8633278e-06 3.6248643e-06 3.538758e-06 3.3431731e-06 -8.022185e-07 -9.740872e-07 2.041218e-06
8.913131e-07 -9.646924e-07 2.4680053e-06 2.6565826e-06 -1.2159423e-06 5.454166e-08 1.2299619e-06 -1.067122e-06
-3.6186437e-13 -2.20197e-13 -1.3251265e-13 -2.3318627e-13 3.8147233e-14 1.9684348e-14 -6.693382e-14 4.2806505e-13
-4.5166065e-13 -4.4758447e-14 -2.5165568e-13 2.7469693e-13 -3.025542e-13 3.0980614e-13 -4.1059926e-13 -3.553834e-13
0.12114121 0.14724909 -0.023867225 0.055311333 -0.06820837 -0.06546077 -0.03615779 -0.14399002
0.23421039 -0.045533862 0.1812985 -0.11438989 0.07554043 -0.13640293 0.23006219 0.113841556
00000000: e5e8 1f3e 9c85 113e 3b5b 55bd b2b5 103d
00000010: 3755 c9bd f617 54bd 41c5 92bc 758d 2dbe
00000020: c532 863e 9913 e7bc 1ff9 3b3e 25fc 11be
00000030: 8d0b dd3d 330b 0ebe d27a 813e 31ca 183e
00000040: 875a 34ba 51b0 65ba 6076 50ba ee20 5dba
00000050: 4739 45ba d6ec 14ba d9cf 18ba 2a04 27ba
00000060: a44e 5dba e4fa 16ba 084c 67ba 794d 34ba
00000070: afb0 29ba 9142 10ba 3c09 61ba 01bb 31ba
00000080: 5070 d2a9 c1e8 9aaa e0c7 c3aa 2f17 b9aa
00000090: f288 c4aa dc10 2baa 566d 18aa 87f4 b6aa
000000a0: fe2a 12aa c85e 1baa cfb3 88aa 520e bfaa
000000b0: d037 daa9 4fc2 77aa ddf2 28aa f8ec cfa9
000000c0: 0f68 68b4 2f91 cbb4 ea86 f0b4 dc03 eab4
000000d0: f813 ebb4 06c0 7bb4 f802 75b4 6238 c9b4
000000e0: 93ac 86b4 18af 73b4 ae6f bab4 85c7 dab4
000000f0: 106a 65b4 943f 92b4 c34a 90b4 4304 65b4
00000100: bd96 71bd 0fe6 3cbd 8c41 b63d 5292 ea3c
00000110: bb05 f83d 8e3e b13d 568e 803d 5936 2f3e
00000120: 3683 07be 07ed 8e3d 2e0a 9bbd d016 1c3e
00000130: 05b7 cfbc 0edd 173e 4b1e 01be c22c 5dbd
00000140: bd88 0abe 073b 133e cf7d 7d3e d65b 603e
00000150: 5288 733e 0928 56bd 5287 96bd ee6c 363e
00000160: 0082 2cbd fb35 92bd ec59 d53d 4814 543e
00000170: 85e2 0bbe bf87 fe3c 8071 20bc d6a2 11be
00000180: 5208 39bc 32e6 8e3e 0511 313e 72ba 7a3e
00000190: 9d1c eb3d e55e 1cbe 2029 0ebe 0b76 bdbc
000001a0: aee0 4e3e b3f6 16be 98d2 8f3e 2bdd 153d
000001b0: 3c25 88bd 79b5 1bbe 3a2b 663e b53c d1bc
000001c0: 08ef 0100 e222 0200 8f60 0000 d7e4 0100
000001d0: 2ce5 0680 cac5 0280 3430 0000 b51c 9f00
000001e0: 5f5f 0200 5d10 0000 8f1d 0200 a97d 0b00
000001f0: f435 0100 fd2d 1700 cf5a 0200 11d3 0100
00000200: dc65 7aa1 028f 3ba1 4f75 9ca0 942b f7a0
00000210: 8a55 6ea0 146d 10a1 2c69 25a1 da8f 2ba0
00000220: af60 85a1 1fdb 1fa1 2316 55a1 6910 3da0
00000230: 977d 68a1 3263 aaa0 fcd2 81a1 5b8c 78a1
00000240: 4a17 573e b8b9 41bc 545d 0ebe bc62 c4bd
00000250: f3f8 13be 76d8 c33d c8a1 f73d 25e4 e7bd
00000260: e89b 253e edd1 ed3d 46b8 eb3c 0ffc 04be
00000270: 1e30 4c3e f3f5 113c 48e4 0a3e fd23 5a3e
00000280: 2f07 3f3e 1abe e9bd 36b2 0bbe 4d8a 17be
00000290: 96f2 dabd c33c 443e 55b0 4d3e 4e12 20bc
000002a0: 33fd 203d 5a28 4f3e 08b0 b5bd 201e 57bd
000002b0: f30f 573e b5d3 0b3e 4a77 2a3c f69b 483e
000002c0: 5339 00be 0211 4b3e fb80 813e 15a1 7f3e
000002d0: 6405 693e 7090 c9bd 9adf e5bd 7465 0a3e
000002e0: 1dfb 873c 7e07 e8bd 4297 293e 2936 353e
000002f0: e773 12be 7722 dfbc 94d2 4a3d ed13 0abe
00000300: a79f bc3d 642f 95bd d8d0 81bd 99e3 a1bd
00000310: fb17 2ebd d46a f13d e283 f43d 9860 9d3c
00000320: f42c 3abb 0fd0 f73d dbfd 81bd 9137 05bc
00000330: 3efb e13d 388c c53d 19c7 90bc 7d48 c83d
00000340: 0ddc 81b5 9927 4036 b242 7336 667b 6d36
00000350: 475b 6036 0958 57b5 62bd 82b5 dcfb 0836
00000360: 9242 6f35 947a 81b5 02a0 2536 be47 3236
00000370: 7633 a3b5 3041 6a33 2b15 a535 083a 8fb5
00000380: 27b6 cbaa 77eb 77aa 2c32 15aa af45 83aa
00000390: c4cc 2b29 044d b128 b8b8 96a9 adfa f02a
000003a0: 2943 feaa fa92 49a9 68ab 8daa 00a4 9a2a
000003b0: a852 aaaa c567 ae2a 9725 e7aa 2510 c8aa
000003c0: e218 f83d 77c8 163e 3385 c3bc 238e 623d
000003d0: d4b0 8bbd 4c10 86bd 311a 14bd 1f72 13be
000003e0: d9d4 6f3e b781 3abd 50a6 393e 3f45 eabd
000003f0: f1b4 9a3d 36ad 0bbe 6c95 6b3e c325 e93d

fc3.bias f4 [32]
0.07135813 -0.001311716 -1.4644937e-13 -1.8205118e-07 0.050746214 0.09007126 0.110061854 -5.9972527e-20
-5.582357e-19 0.07136322 0.07206351 0.10552626 0.046891566 1.6714325e-06 -1.1545053e-12 0.06395874
0.06400771 0.08792458 0.062370803 -6.1318897e-23 0.061666448 0.103999786 0.07028438 0.09580362
-1.3727062e-20 0.040527124 0.084222585 0.09360094 0.07136605 0.08049673 0.06764887 0.088539176
00000000: 3624 923d e3ed abba 28e3 24aa d979 43b4
00000010: 43db 4f3d 4877 b83d 1c68 e13d 2b9b 8d9f
00000020: 19c3 24a1 e126 923d 0996 933d 271e d83d
00000030: 5f11 403d fc55 e035 707b a2ab cdfc 823d
00000040: 7916 833d cd11 b43d 8778 7f3d 8f42 949a
00000050: f595 7c3d d7fd d43d 42f1 8f3d b034 c43d
00000060: 00a6 819e c5ff 253d e47c ac3d dab1 bf3d
00000070: 5d28 923d 78db a43d 7e8b 8a3d 0754 b53d

fc4.weight f4 [3, 32]
0.11610245 0.001364417 1.3122614e-13 -2.6303653e-06 -0.089319594 -0.42847857 -0.34736 -2.1271327e-07
-3.0578316e-19 0.35281053 0.3879032 -0.42603168 0.22071794 -3.8441217e-06 -2.8273317e-12 0.063967384
0.062014334 0.24778515 0.32120728 1.3183139e-22 0.284028 -0.3077443 0.33830473 -0.24360439
6.929368e-21 0.03944527 -0.3555527 -0.30800784 0.25003934 0.2863765 0.31143335 -0.21184255
0.016226659 -0.0012161928 2.9617693e-13 -2.7650728e-07 -0.00916127 -0.3555394 -0.39498487 3.7429308e-07
8.1340273e-19 0.29762647 0.4215521 -0.44881546 0.21773738 -3.2710436e-06 3.7742075e-12 -0.06173716
0.16189744 0.334159 0.32236546 4.0368925e-23 0.23967803 -0.41619352 0.3095305 -0.15523386
5.954035e-21 -0.024226354 -0.3742709 -0.3961703 0.3183303 0.24866863 0.3165704 -0.07213393
-0.56653273 0.00020261691 1.1709753e-13 2.5388692e-07 0.39606756 0.19473359 -0.4234537 -2.0523633e-17
1.0558052e-18 -0.28605065 0.048794474 0.046728548 0.097202 6.167175e-06 -2.3365507e-12 -0.5109693
0.4817115 0.47708172 0.069255054 2.1012972e-22 -0.2773709 -0.32083103 -0.26928452 0.60773045
2.4337046e-20 -0.32707775 0.060577817 -0.21379295 0.28241718 -0.48666754 0.21052037 0.6118562
00000000: 1fc7 ed3d 3dd6 b23a 5cbf 132a 5585 30b6
00000010: 31ed b6bd 8b61 dbbe 2bd9 b1be 2e66 64b4
00000020: a580 b4a0 95a3 b43e 409b c63e d320 dabe
00000030: e203 623e c1fc 80b6 aef4 46ac 5501 833d
00000040: be02 7e3d 64bb 7d3e 4875 a43e d75f 1f1b
00000050: 1e6c 913e a990 9dbe 4736 ad3e 6e73 79be
00000060: 5ee4 021e 5d91 213d 010b b6be 34b3 9dbe
00000070: 2805 803e f19f 923e 3174 9f3e 41ed 58be
00000080: c5ed 843c a968 9fba 98bb a62a df72 94b4
00000090: 2719 16bc 4309 b6be 753b cabe 73f2 c834
000000a0: f912 7021 7f62 983e add5 d73e 24cb e5be
000000b0: 8cf6 5e3e 1a84 5bb6 0acb 842c 1be0 7cbd
000000c0: 71c8 253e e316 ab3e 160d a53e 4f36 431a
000000d0: 286e 753e 5117 d5be c87a 9e3e a0f5 1ebe
000000e0: e5ef e01d 5976 c6bc 6fa0 bfbe d5d6 cabe
000000f0: 30fc a23e fda2 7e3e 8415 a23e f4ba 93bd
00000100: 4a08 11bf 9075 5439 11d7 032a f44d 8834
00000110: 5ec9 ca3e 3e68 473e ecce d8be 0f4c bda3
00000120: 31cf 9b21 3b75 92be b7dc 473d 6f66 3f3d
00000130: d811 c73d a1ef ce36 8e6b 24ac e2ce 02bf
00000140: e4a2 f63e 0e44 f43e 98d5 8d3d 0008 7e1b
00000150: 8f03 8ebe f743 a4be a9df 89be 3994 1b3f
00000160: 5edb e51e bc76 a7be 7220 783d 8aec 5abe
00000170: fc98 903e 7d2c f9be a792 573e 9ca2 1c3f

fc4.bias f4 [3]
-0.086497076 -0.09593645 0.009722693
00000000: 6125 b1bd 547a c4bd ee4b 1f3c
