Project/ml_models/best.pth (torch, 5617 bytes, 8 tensors)

fc1.weight f4 [8, 5]
000000 60 b5 da bd 39 7a 11 3e 63 c4 3d 3f 74 5c 27 bf
       -0.10679126 0.1420678 0.7412779 -0.6537545
000010 0b d5 b6 bd 0f 99 63 be 10 07 32 be 8d 5b 26 3f
       -0.089273535 -0.22226356 -0.17385507 0.64983445
000020 ef 80 80 3e 11 b2 bb be 0c 5d 24 bf 91 96 5e be
       0.2509837 -0.3665929 -0.6420448 -0.21737124
000030 c6 9b fa 3e 1a f6 ee 3e 66 e5 05 3e 51 94 d2 be
       0.4894697 0.46672136 0.1307579 -0.4112878
000040 28 36 6a bc bd f0 84 3e dd 70 db 3e 29 09 76 3f
       -0.014295138 0.2596492 0.42859545 0.9610773
000050 61 87 81 3e 3c 1f fc bd 14 70 70 3f 02 4d ad 3d
       0.25298598 -0.12310645 0.9392102 0.08461954
000060 5d 52 1e 3f 62 8f 81 be 03 1a 9e be 14 77 8e bd
       0.61844426 -0.25304705 -0.3087922 -0.06956306
000070 b0 84 25 bd 68 1d a1 3e 88 4c 23 bd 10 f5 39 bd
       -0.040409744 0.31467748 -0.039867908 -0.045399725
000080 40 9f ad 3d 5b da 8f be 14 bd 81 be bf fa df bd
       0.0847764 -0.2809628 -0.25339568 -0.10936498
000090 8c 3f cc 3d f3 f0 eb 3e 4d 8b 5b 3f 8a f6 88 be
       0.09973058 0.46082267 0.8575943 -0.26750594

fc1.bias f4 [8]
000000 46 86 37 3f 43 19 ef 3e e0 20 db bd d0 0d c8 3d
       0.7168926 0.4669896 -0.1069963 0.097682595
000010 c5 7f 01 bf 33 67 6b be 70 f2 d2 be e5 bd 8a bd
       -0.50585586 -0.22988586 -0.4120059 -0.06774501

fc2.weight f4 [16, 8]
000000 2d 93 2c bf 30 be 6b bf cb e2 1f 3f c0 90 83 3e
       -0.6741207 -0.9208708 0.62455434 0.25696373
000010 73 89 86 3e 01 79 11 be c5 3c 85 3e 91 2f bc be
       0.2627674 -0.14206316 0.26022926 -0.3675504
000020 e3 5d 11 bf 1b b7 ef 3e 17 52 80 bf 5e 06 e3 3e
       -0.56783885 0.46819386 -1.0025052 0.44340795
000030 da f0 1c 3e f0 6c 82 be 92 89 25 be c8 96 f2 3e
       0.15326253 -0.25473738 -0.1616576 0.47380662
000040 de b2 ff 3e 1a ea 20 3f 41 dd 1d 3f e4 99 2d bf
       0.49941152 0.6285721 0.6166573 -0.67812943
000050 88 4a 03 bf 84 5f ae 3e c0 02 aa bb a6 e8 a4 3e
       -0.512856 0.34057248 -0.005188316 0.32208747
000060 52 26 e6 be b7 31 ea be 07 46 c5 3d 00 11 33 3f
       -0.4495111 -0.45741054 0.09632497 0.69947815
000070 ad dc 0d 3f ee b8 90 3d b1 08 44 be 80 94 c0 be
       0.5541485 0.070665225 -0.1914394 -0.37613297
000080 57 76 0f 3e 73 f9 06 bf 4b 33 05 3f ca e5 48 3f
       0.14009987 -0.5272438 0.5203139 0.7847563
000090 ea ab c0 3d 44 ad e7 bc a8 3e 27 bd 7b 6d 2c be
       0.0940779 -0.028280862 -0.040831238 -0.16838638
0000a0 1d eb 57 bf bf b2 2b be ce 3e 3e 3d f3 13 08 bf
       -0.8434313 -0.16767405 0.046446614 -0.5315544
0000b0 93 4e a9 be 4e 97 33 be a0 78 23 3d 09 e7 b7 3e
       -0.3306776 -0.17538187 0.03990996 0.35918453
0000c0 da 1b d7 bd a8 c9 97 3f 0b e1 b7 3e 55 ee df bc
       -0.10503359 1.1858416 0.35913882 -0.027335325
0000d0 a8 de 02 bf e1 89 39 be d4 9e a4 bd 5d ea 70 3f
       -0.51120996 -0.18119003 -0.080381066 0.9410761
0000e0 c6 1b b8 be b7 ae d5 be 29 c9 ee 3d 0f 47 80 3e
       -0.3595869 -0.4173486 0.11659462 0.25054213
0000f0 38 b6 69 be b2 f0 47 bd 00 15 88 bd 36 97 77 3d
       -0.22823417 -0.04881353 -0.066446304 0.06044694
000100 b1 2c 88 be a6 95 e7 be ce 10 10 3f dc 68 9c be
       -0.26596597 -0.4523136 0.5627564 -0.3054875
000110 b4 d5 fe bd be d2 46 be 78 00 25 be b7 0c 63 3d
       -0.124431044 -0.1941633 -0.1611346 0.055432048
000120 3d c3 10 3f d4 04 49 3f 59 b7 15 3d 5a 70 20 be
       0.5654791 0.7852299 0.036551807 -0.15667859
000130 07 51 da 3e 17 f3 59 bd 8d f6 8b 3e 30 61 3d 3e
       0.42639944 -0.053210344 0.2733654 0.18494105
000140 44 81 07 3f 3d 29 83 3e e2 3e 43 3f e5 3e 0c bf
       0.5293162 0.256174 0.76267827 -0.5478347
000150 3c 33 84 be 71 a3 69 be 50 a4 0b 3d 87 96 1e bf
       -0.2582034 -0.22816254 0.034092247 -0.61948436
000160 f5 80 ef be 25 4c 71 3f a2 0d 8c 3d 79 b3 ae 3e
       -0.46778074 0.9425681 0.06838538 0.34121302
000170 1b 4a ff be a5 3e 6d 3e 70 99 85 be c2 7d 27 3f
       -0.49861225 0.23168428 -0.26093626 0.65426266
000180 f8 d6 37 3e 89 46 45 3f 41 f7 52 bf a3 d8 94 be
       0.17953098 0.77060753 -0.8240853 -0.2907153
000190 39 ec cd 3d 98 9c 31 3d 10 aa 34 be 1e f6 12 3f
       0.100548215 0.04336223 -0.17642999 0.57406795
0001a0 a5 93 dc 3e 61 43 90 3d 22 90 95 3e a7 6a fe 3e
       0.43081394 0.070441015 0.29211527 0.49690744
0001b0 c1 41 f8 3e 74 06 88 3d 0a 5b 49 3e 0b 40 a2 be
       0.48487666 0.06641856 0.19663635 -0.31689486
0001c0 a2 58 cf bd 86 00 c1 3e 0c ec 7d bf e7 ba 50 3e
       -0.10124327 0.37695712 -0.99188304 0.20383798
0001d0 d4 34 d4 3e 01 ee a4 3e 58 0d 4d 3d dc ac d2 3e
       0.41446555 0.32212833 0.050061554 0.41147506
0001e0 e7 9f 54 3f 09 61 dd 3d 41 b3 5c 3f f9 2e 81 be
       0.8305649 0.108095236 0.8621102 -0.2523115
0001f0 09 0f b4 bb 90 87 39 3e 91 a8 80 3e 9a d1 9d bf
       -0.0054949564 0.18118119 0.25128606 -1.232959

fc2.bias f4 [16]
000000 2d 0d ae 3e c5 ec 04 3b c0 1b 75 3e cd 74 dd 3c
       0.33994427 0.0020282727 0.23936367 0.027033234
000010 13 a1 8c 3e ab a6 fd bc a1 88 53 3c 3b 38 83 3e
       0.2746664 -0.030963263 0.012910993 0.25628838
000020 8f 56 4a 3e 96 8e 89 be fa be 15 3e 59 8f 22 3e
       0.19759582 -0.26866597 0.14623633 0.15874995
000030 2a 65 b8 bc 06 91 00 3e 85 51 d2 be 27 4e 59 3e
       -0.022509176 0.12555322 -0.4107782 0.21221219

fc3.weight f4 [32, 16]
000000 ca 53 a9 3e f5 d9 ba 3c 1b 15 26 3d 11 34 81 3e
       0.33071738 0.022809008 0.04054747 0.25235036
000010 b4 e4 b8 3e da 3a 2a be ed fd cc bc 3e 5b c2 3d
       0.36111987 -0.16624013 -0.025023425 0.09490059
000020 97 c3 4f bd 3c bf 50 3e 3f 5a 04 bd 63 fa 04 bd
       -0.05072364 0.2038545 -0.032312628 -0.03246535
000030 0e dd 01 be 1d 49 6f 3d 42 22 2f be 50 fe 5b 3e
       -0.12681982 0.058419336 -0.17102912 0.21483731
000040 60 97 8b bc 30 af 94 bc 30 c5 cf bd e8 e4 2d bd
       -0.017039955 -0.018149942 -0.101450324 -0.04245463
000050 6c 03 3c 3e 4c b2 2d be d4 89 33 3e c0 bd c9 3c
       0.1836068 -0.16962546 0.17533046 0.024626613
000060 00 44 21 be b4 d4 92 3d 46 e3 75 be 9c 73 ad bd
       -0.15748596 0.07169476 -0.24012479 -0.08469316
000070 72 6e 2c be 9c cb e6 bd 14 9f c6 3d 0a f4 10 3e
       -0.16839007 -0.11269304 0.096983105 0.14155594
000080 c7 97 dd bd 7d 0a d1 bd 4b ac 2a 3e 08 f3 38 bd
       -0.10819965 -0.102070786 0.16667287 -0.045153648
000090 33 cb 58 3e 68 9e 76 be db 11 92 3c 10 66 55 3e
       0.21171264 -0.24083865 0.01783078 0.20839715
0000a0 aa f6 24 be 07 5c 7f be 75 b2 39 3e 28 db 69 be
       -0.1610972 -0.2493745 0.18134482 -0.22837508
0000b0 0c 04 18 3e 35 8f 08 3e d0 6e 3d bd d7 61 74 be
       0.14845294 0.13335879 -0.046248257 -0.23865448
0000c0 92 91 34 be a0 53 46 be 44 40 82 3d 62 bd 18 be
       -0.17633656 -0.19367838 0.06359914 -0.14915994
0000d0 b0 60 7c bd f6 93 4a be 68 91 58 3d 50 91 7d be
       -0.061615646 -0.19783005 0.052873045 -0.24762464
0000e0 b4 9b e8 bd 24 88 ea 3d 7a ee 7c 3e 60 0f b5 3c
       -0.11357823 0.11451748 0.24700347 0.022102058
0000f0 c8 17 21 3e 36 1c 6b be 60 26 3b bd 00 58 50 ba
       0.15731728 -0.2295998 -0.045690894 -0.00079476833
000100 10 b2 3a bd 54 88 1b 3e 90 2c 44 3d 88 e9 37 be
       -0.04557997 0.15188724 0.04789406 -0.17960179
000110 76 ff 12 3e da 91 69 be ca 13 0b be 88 67 09 be
       0.14355263 -0.22809544 -0.13581768 -0.134184
000120 a8 e2 b8 3d f0 8a cc 3c 64 a0 da bd a0 5d fb bc
       0.09027606 0.024968594 -0.10675123 -0.030684292
000130 7e 07 25 be 20 d1 71 bc 2e ee 72 be 3a e6 50 3e
       -0.1611614 -0.014759332 -0.23723671 0.20400324
000140 d0 68 1d 3e 92 36 1b be c4 54 a3 bd 8c c4 62 be
       0.15372014 -0.15157536 -0.07975152 -0.22145289
000150 d4 af 08 be d0 f4 dd 3c bc 8b d2 3d b2 f2 60 be
       -0.13348323 0.027094275 0.102805585 -0.21967581
000160 00 08 e9 bd 52 79 16 3e 72 aa 7b be 92 d8 2e be
       -0.11378479 0.14694718 -0.24576738 -0.17074803
000170 d0 5b ed 3d 24 b5 4d 3e 38 13 0e be e8 d5 14 3e
       0.115897775 0.20088631 -0.13874519 0.14534724
000180 39 13 82 bd 69 80 b1 bd ea c5 70 be bd 14 5c 3e
       -0.06351323 -0.086670704 -0.23512998 0.21492286
000190 84 4f 3d be 6a a1 a7 be 44 6a 50 3e 36 ad a4 bd
       -0.18487364 -0.32740337 0.20353037 -0.0804085
0001a0 5c 23 68 bd e7 df 77 3e 40 65 a7 be da 2e 5a 3e
       -0.056674346 0.24206506 -0.32694435 0.21306935
0001b0 fb 52 89 3d 52 4f b4 3e 7a 15 8b 3e 5b 32 a8 3a
       0.067052804 0.35216767 0.27164823 0.001283239
0001c0 c4 8b ec bd 90 04 88 3c b0 c2 0e bd 56 a1 25 be
       -0.11550096 0.016603738 -0.034853637 -0.16174826
0001d0 e0 67 1d 3e f2 c0 34 3e ac a1 a8 3d 80 3f 69 bd
       0.15371656 0.17651728 0.082339615 -0.056945324
0001e0 40 ff f9 bb 90 ee fc 3c 3a 57 5b be 38 18 ca 3d
       -0.007629305 0.030875474 -0.21419993 0.098679006
0001f0 d4 df 14 be 64 f8 56 be 40 46 34 be ac 1f a4 bd
       -0.14538509 -0.20993191 -0.17604923 -0.080138534
000200 5e fc 9a bc cd f1 82 3b 22 e4 21 3e 5f 7a 73 be
       -0.018919166 0.00399611 0.15809682 -0.2377715
000210 c1 c8 3f be 3b b4 ce 3e 4a d9 c3 3e ec a2 18 be
       -0.18728925 0.4037188 0.38251716 -0.149059
000220 e6 75 67 3a d7 64 18 bc b9 b3 11 3e c4 66 73 3e
       0.0008829519 -0.009301386 0.14228715 0.2376967
000230 f3 a2 2d 3e 5d 44 9f be ed 55 4f 3c 40 78 86 be
       0.16956691 -0.31106845 0.012654764 -0.26263618
000240 17 83 aa be 7b 74 2d 3e d9 6d 32 bb 79 59 0a be
       -0.3330314 0.16938965 -0.002722612 -0.13510694
000250 0d 74 9a 3d e7 67 07 be 5c b4 1a be e3 37 68 be
       0.07541666 -0.1322323 -0.15107864 -0.22677569
000260 06 6b 80 bd 95 20 c1 3e 17 55 9d be 66 ea 7f 3e
       -0.06270413 0.3772017 -0.3072898 0.2499176
000270 37 4d a6 3e 04 9e ab bc 82 de a7 3e 14 32 89 be
       0.32480785 -0.020949371 0.32786947 -0.2679602
000280 c2 db 5e be 82 85 a6 bc 26 44 86 bc b2 1c 2e be
       -0.21763518 -0.020327333 -0.016389918 -0.17003134
000290 c8 d7 93 bc 74 e7 3f bd 6d 83 7c bc b0 f5 23 bb
       -0.018047228 -0.04685159 -0.015412194 -0.0025018267
0002a0 56 89 d9 bd ef 3e 43 3e ef c7 05 be 53 ac 80 bd
       -0.10621898 0.19066976 -0.1306455 -0.06282868
0002b0 f6 b1 43 3e ae fe 50 3e e8 e1 1a 3e 76 c5 00 3e
       0.19110855 0.20409653 0.15125239 0.12575325
0002c0 a1 66 93 3e 65 f1 62 3e 1b c6 7a be b8 34 1e 3e
       0.28789237 0.22162397 -0.24489634 0.15449798
0002d0 b9 c6 8f bc f1 d8 78 3d 56 30 79 3d 34 66 82 3e
       -0.017550813 0.060753766 0.060837112 0.254686
0002e0 91 b8 e8 bd 0c 99 bf 3d 88 c0 a2 be 77 8c 85 bd
       -0.11363328 0.09355363 -0.31787515 -0.06520932
0002f0 ef 10 8f bd bd 7e 34 3e b6 a4 68 3c 90 4b a9 be
       -0.06985652 0.17626472 0.014199426 -0.33065462
000300 13 60 9c 3d 54 48 66 be 3e 9c 83 3e e8 9a 9d be
       0.07635512 -0.22488528 0.2570514 -0.30782247
000310 41 f6 69 be 56 69 48 3d bd b5 9f bd 75 47 a0 be
       -0.22847845 0.04892858 -0.07798336 -0.31304517
000320 7c 35 9b 3d 3f 90 95 3e 94 04 32 3e 3b 40 a6 bc
       0.07578561 0.29211614 0.17384559 -0.0202943
000330 8d 3a e1 3c 42 fd 83 3e c6 56 1e 3e 80 e1 98 3e
       0.02749374 0.25779158 0.15462789 0.29859543
000340 ec b1 a7 3d a6 c4 55 be c0 4a 46 3d 20 d0 3a bd
       0.08188233 -0.20875797 0.04841113 -0.04560864
000350 9c ef b7 3d cc 3d ca bd 62 8c 23 3e 00 f6 b4 bd
       0.08981249 -0.09875068 0.1597152 -0.08835983
000360 02 6d 05 3e ac 31 6d be 74 dd 8a bd 78 ac bd bd
       0.13029864 -0.2316348 -0.0678052 -0.092614114
000370 da a4 26 3e 70 bf 8e bc 80 d0 7e bc 00 e0 06 bc
       0.16273823 -0.017425269 -0.01555264 -0.008232117
000380 8e ff 57 3e bc 7f a4 ba 31 4f 10 bd 1a d6 39 3e
       0.2109358 -0.0012550275 -0.035231773 0.1814808
000390 84 4f 98 3e f6 13 41 3e 74 60 9e be 1b 2a 30 bd
       0.29748166 0.1885527 -0.30932963 -0.043008905
0003a0 7b f5 6a 3b 37 fd ae 3d 9e 1b 8f 3e eb 73 17 3c
       0.0035851884 0.08544391 0.27950758 0.009243946
0003b0 de 8a ce bd fa 4e 75 3d 08 4c 55 be b9 d4 78 3e
       -0.100850806 0.05988977 -0.20829785 0.24299897
0003c0 46 9c 51 be e6 d3 36 3e 04 11 23 3e 46 a7 51 be
       -0.2046977 0.1785427 0.1592446 -0.20473966
0003d0 fa eb 1f 3e 78 63 1f 3e 2e 52 44 be 5c d8 4e 3e
       0.15617362 0.15565288 -0.19171974 0.20199722
0003e0 74 97 55 3e 6a 4b 7d 3e 00 7b 73 3d f4 41 a1 bd
       0.20858556 0.247358 0.059443474 -0.07873908
0003f0 00 b9 f8 ba b0 e8 3b be 16 8f 2d be 24 98 5a be
       -0.0018976033 -0.18350482 -0.16949114 -0.213471

fc3.bias f4 [32]
000000 e5 d9 39 3c 38 ea 2f bd 45 2b d6 3c 08 fc 4d be
       0.011343454 -0.042947978 0.02614368 -0.20115674
000010 c0 4d 6a bd e4 6c 5c be 09 3c a3 bd ec 7d c9 bd
       -0.057203054 -0.21525913 -0.07970435 -0.09838471
000020 c1 87 55 3e e4 26 56 3e aa 82 9b 3d c6 54 4c 3e
       0.20852567 0.20913273 0.075932816 0.19954214
000030 2b ab 49 3c 78 d8 b4 bd 91 d3 67 3e 3e fc 38 be
       0.012308876 -0.08830351 0.226393 -0.18064973
000040 c0 15 2d 3e 00 73 bb 3a 29 ac c6 bd b3 f4 18 3e
       0.16902828 0.001430124 -0.09700806 0.14937095
000050 7f c1 23 3d c4 33 58 bd ce ec 2b be a4 bf 70 3e
       0.039979454 -0.052783743 -0.16789553 0.23510605
000060 e7 4b b0 3d c9 ee 54 be 9a d8 40 be 4e 10 0c be
       0.08608227 -0.20794214 -0.18832627 -0.13678095
000070 e0 c0 0d 3c 08 81 ed bd 88 76 96 3d 71 59 1b be
       0.008651942 -0.115968764 0.07346827 -0.15170838

fc4.weight f4 [3, 32]
000000 3e f9 e2 bd 5a 24 ca 3d b5 12 1f 3e 26 7b 28 be
       -0.110826954 0.09870215 0.1553448 -0.16453227
000010 20 fc 6d 3c 48 6c 95 3c 2d 19 9b 3e 82 57 fe bd
       0.014525443 0.01824011 0.30292645 -0.124190345
000020 52 5b 45 be 4c 0a 42 3e cd f3 90 3d b8 bb 87 bd
       -0.19273117 0.1894924 0.07077751 -0.066276014
000030 d2 76 1c 3e 58 20 4e bd 6a 21 5c be 04 b2 49 bd
       0.15279701 -0.050323814 -0.21497121 -0.049242035
000040 8d 1f 21 3e 80 6a 95 3c f1 62 b0 3e 17 e8 cc 3e
       0.15734692 0.01823926 0.34450486 0.4002082
000050 af a6 a5 bd 02 d4 b0 3d f1 bd 2d 3e 46 2c 99 3d
       -0.08088433 0.08634187 0.16966988 0.074791476
000060 4b d9 30 3e 28 eb be 3e 84 1e 24 be c8 28 71 3d
       0.1727039 0.37288785 -0.16027266 0.058876783
000070 3f 68 22 3e 42 98 f4 3d 52 d6 f6 3d 64 94 3a be
       0.15860079 0.119431034 0.12052597 -0.18220669
000080 49 4a 0e bd b8 3a d3 bc 17 e5 97 bd 4e 9f c6 3d
       -0.034738813 -0.025784835 -0.07416742 0.09698354
000090 2b f9 02 be 1a 8a 86 3d 7e e2 14 3e 6a 7c e3 3d
       -0.12790363 0.065693095 0.14539525 0.111077145
0000a0 28 37 c8 3e 05 99 d1 3d f1 15 30 bc 76 8a 8c 3e
       0.3910458 0.10234264 -0.010747419 0.27449387
0000b0 32 57 38 be b2 bb 92 3d ad c8 6a be 75 f8 1b be
       -0.18002012 0.07164706 -0.22928114 -0.15231498
0000c0 c0 56 9e 3d 90 d1 11 3c e3 da cd 3d 14 39 f2 bd
       0.0773139 0.008900061 0.10051515 -0.11827293
0000d0 58 9c 48 bb 55 cb 1f be 40 36 04 be 5d 82 56 3e
       -0.0030610766 -0.15604909 -0.1291132 0.20948167
0000e0 d3 9c 22 3e 4f a0 b0 3e 37 22 29 3e 26 0f 00 be
       0.15880136 0.34497306 0.16516958 -0.12505779
0000f0 27 df 27 3e 5c 50 33 bd 6b c8 b3 bd 02 78 1f 3d
       0.1639372 -0.04377781 -0.08778461 0.038932808
000100 da 1d 83 3e 04 d8 0c 3d c7 3b f8 bd fc 3e 1d be
       0.25608712 0.034385696 -0.121207766 -0.15356058
000110 1a 1d eb 3d 2e 21 d1 3d fe b9 20 3e d3 34 33 3e
       0.1148016 0.10211407 0.1569595 0.1750062
000120 a6 39 12 bf 89 9b 06 3c 90 c1 da 3c 7a 78 95 3e
       -0.57119215 0.008215793 0.026703626 0.2919348
000130 a6 a1 eb bd 41 fa 24 be 5a 49 8a 3e 23 5a 05 3e
       -0.11505441 -0.1611109 0.27009088 0.13022666
000140 83 00 8a 3e c0 62 59 bb 5e 9f 6c 3e c1 4e 09 be
       0.26953515 -0.0033170432 0.23107669 -0.13408948
000150 e3 b4 d8 bb 4a fa 1b be 17 6d 05 3e 23 59 11 3d
       -0.0066133603 -0.15232196 0.13029896 0.035485398
000160 fe 29 5f 3e b5 09 34 3d 3b 7b 0e be 40 56 2f be
       0.21793362 0.04395457 -0.13914196 -0.17122746
000170 88 44 39 3d 50 e1 c8 bc 6b 76 9e bd f9 13 2b 3e
       0.045231372 -0.0245215 -0.0773743 0.16706838

fc4.bias f4 [3]
000000 e1 95 20 3d 83 c9 29 3e 70 0d 88 3c
       0.039205436 0.16580777 0.01660797
